NeuralNet/NBA_net.pth (torch_old, 2754 bytes, 5 tensors)

fc1.weight f4 [15, 10]
0	0xbe120969	-0.14261402
1	0xbd717299	-0.05894718
2	0x3e3ee024	0.1864019
3	0xbdf64fc6	-0.12026934
4	0xbe265f56	-0.16247305
5	0x3e6bc227	0.23023282
6	0xbe99f381	-0.3006859
7	0xbd56be38	-0.0524275
8	0x3e8d0951	0.2754617
9	0xbdc01ff1	-0.09381092
10	0xbef1c8f7	-0.47223637
11	0x3e5a9316	0.21345171
12	0x3e7d06b8	0.24709594
13	0x3e857bb0	0.2607093
14	0xbdfe1b00	-0.124074936
15	0x3e85c532	0.2612701
16	0xbe9efceb	-0.31052336
17	0x3dfac942	0.12245418
18	0xbb84ea49	-0.0040562493
19	0x3f1065d0	0.56405354
20	0xbe3920aa	-0.18078867
21	0xbe6ff14d	-0.23431893
22	0x3de142b5	0.109990515
23	0x3df837aa	0.12119992
24	0x3e9f7f72	0.3115192
25	0xbe322667	-0.17397462
26	0xbe7b3453	-0.24531679
27	0x3d5ccb2b	0.053904694
28	0x3e182e6d	0.1486146
29	0xbdcffc33	-0.10155525
30	0xbe82884a	-0.25494605
31	0xbe397b78	-0.18113506
32	0x3e8c14d8	0.27359653
33	0xbdb85360	-0.090002775
34	0xbe599ac5	-0.21250446
35	0xbde8dd56	-0.113703415
36	0x3e640e50	0.22271085
37	0xbdb20303	-0.08691981
38	0x3dc409dd	0.09572194
39	0x3e5852a5	0.21125276
40	0xbdba7d29	-0.09105904
41	0xbe31de11	-0.17369868
42	0x3e87f9eb	0.2655786
43	0x3da2742e	0.07932316
44	0xbe4b4762	-0.19851449
45	0xbe30575d	-0.17220826
46	0xbe5dc8f6	-0.21658692
47	0x3d8f8892	0.070084706
48	0xbe9b7c22	-0.30368143
49	0xbe815fce	-0.25268406
50	0xbeea467e	-0.45756906
51	0x3e51b3b6	0.2047871
52	0x3e18da7b	0.14927094
53	0x3e9acc26	0.30233878
54	0x3b75f10b	0.0037527706
55	0x3e9cc14f	0.30616233
56	0xbe6eff28	-0.23339522
57	0xbde10ce9	-0.109887905
58	0x3e1d7211	0.15375544
59	0x3ef67eed	0.48143712
60	0x3e8e8843	0.27838334
61	0x3df610fa	0.12014957
62	0xbe98e61a	-0.29863054
63	0xbe670ef9	-0.22564305
64	0x3e1bfece	0.15233919
65	0xbe88baf4	-0.26705134
66	0x3b81e994	0.0039646123
67	0xbcc36200	-0.023850441
68	0x3e700ede	0.23443171
69	0x3e9132f5	0.2835919
70	0xbe11af1d	-0.14226957
71	0x3e9f59e5	0.31123272
72	0x3df2ea63	0.11861112
73	0x3e0f1907	0.13974391
74	0xbe638cf0	-0.22221732
75	0xbe83c315	-0.25734773
76	0x3dfe2864	0.12410048
77	0xbd7eee21	-0.062238816
78	0xbdbc8d59	-0.092066474
79	0xbdf7b092	-0.12094225
80	0xbe165bdf	-0.14683484
81	0xbc942d1a	-0.018087912
82	0x3e3ec4a0	0.18629694
83	0xbd1f880c	-0.038948104
84	0x3dbd9c8b	0.09258374
85	0x3e9fdf20	0.31224918
86	0xbe96b1cf	-0.29432532
87	0xbdcbc64c	-0.099499315
88	0xbe4baa16	-0.19889101
89	0x3ec57db6	0.38572472
90	0xbd81ab7d	-0.06331537
91	0x3e57b048	0.2106334
92	0x3d88b8dd	0.06675885
93	0xbe743f04	-0.23852164
94	0x3e3e1be0	0.18565321
95	0xbdeae51a	-0.11469479
96	0xbe8162eb	-0.2527078
97	0x3e4d4055	0.20044072
98	0x3e6332f4	0.22187406
99	0xbe9d2e40	-0.30699348
100	0x3e83bf2f	0.257318
101	0x3e505017	0.20343052
102	0xbe555d6f	-0.20836423
103	0x3e1e4154	0.15454608
104	0xbe1eaf1f	-0.15496491
105	0xbcfdf05b	-0.0309984
106	0xbe9aab0b	-0.3020862
107	0xbbf1280b	-0.00735951
108	0x3e52be85	0.2058049
109	0xbe5464b9	-0.20741548
110	0xbe8a340e	-0.2699284
111	0xbe3aff96	-0.18261561
112	0x3e19affc	0.15008539
113	0x3d77ff1a	0.06054602
114	0x3c8d0152	0.017212544
115	0x3e9b565b	0.30339321
116	0x3e8370ad	0.25671902
117	0xbd1cfa30	-0.038324535
118	0xbe968319	-0.29396895
119	0xbe11b377	-0.14228617
120	0x3e4cab75	0.1998728
121	0x3e560f3e	0.20904252
122	0x3e15e710	0.14638925
123	0xbc5883d2	-0.013215022
124	0xbe425167	-0.18976365
125	0x3e5b3332	0.21406248
126	0xbe03d83c	-0.12875456
127	0x3e983221	0.29725745
128	0xbe6f6141	-0.23376943
129	0x3df20bff	0.11818694
130	0x3e9cf5de	0.30656332
131	0xbd5bd615	-0.05367096
132	0x3e2a91dd	0.16657205
133	0xbcd53bd6	-0.026029509
134	0xbdab0161	-0.083498724
135	0x3ceb0ccb	0.028692624
136	0x3c4fccab	0.012683074
137	0xbe721d80	-0.23644066
138	0x3e3f4ef0	0.18682456
139	0xbd1af20d	-0.037828494
140	0xbece7977	-0.40327045
141	0x3e588fbf	0.21148585
142	0x3e30a7d7	0.17251526
143	0x3e6931d0	0.22772908
144	0x3e5e2fbe	0.216979
145	0xbe0077b8	-0.12545669
146	0xbe9db451	-0.30801633
147	0xbdcc8ef1	-0.099882014
148	0xbe1ee8b3	-0.15518455
149	0x3ed614d8	0.41812778

fc1.bias f4 [15]
0	0x3db6e29e	0.089299425
1	0xbd927907	-0.071519904
2	0x3d4b0429	0.049564514
3	0xbe6c69f2	-0.2308729
4	0x3d961944	0.07329038
5	0xbd3a4381	-0.045474533
6	0x3e78ef3a	0.24310008
7	0xbe2a18c7	-0.16611014
8	0xbe3a662e	-0.18203041
9	0x3e73b73a	0.23800364
10	0xbe82a507	-0.2551653
11	0xbd255ab6	-0.04036971
12	0x3d9db550	0.07700598
13	0xbe919d4e	-0.28440326
14	0xbe08e68b	-0.13369195

fc2.weight f4 [15, 15]
0	0xbbbb9544	-0.005724581
1	0xbe1f72e4	-0.15571171
2	0x3d74b42d	0.05974214
3	0xbcf8e650	-0.030383259
4	0xbd984e20	-0.07436776
5	0xbe209a01	-0.15683748
6	0xbcca03da	-0.02466004
7	0xbe89f364	-0.26943505
8	0xbe081b98	-0.13291776
9	0xbe52f1b7	-0.2060002
10	0xbdb3fc5f	-0.0878837
11	0x3d8b483b	0.06800886
12	0x3e1924f5	0.14955504
13	0x3d5b262b	0.053503197
14	0xbe8ee8ec	-0.2791208
15	0xbe4702ec	-0.19434708
16	0xbe913fad	-0.28368893
17	0x3e79979b	0.24374239
18	0xbdf9fcf4	-0.1220645
19	0xbdecc598	-0.115611255
20	0xbe8c24e2	-0.2737189
21	0x3d9a4bc9	0.07533986
22	0xbe0c277d	-0.13686939
23	0xbe5b242b	-0.21400516
24	0xbdd7d6b3	-0.105389975
25	0xbdf2264a	-0.11823709
26	0xbe78f76f	-0.24313138
27	0xbc70fef7	-0.014709226
28	0xbe558ec5	-0.20855244
29	0xbe8c3bdf	-0.27389428
30	0x3dd491e3	0.10379388
31	0x3ea04e65	0.3130981
32	0xbde355b4	-0.11100331
33	0xbe271e58	-0.16320169
34	0x3d929f70	0.071593165
35	0x3e69ff18	0.22851217
36	0xbd32a3fe	-0.043613426
37	0x3e578d17	0.21049915
38	0x3e655396	0.22395167
39	0xbe5d3771	-0.2160318
40	0xbe5de657	-0.21669899
41	0xbc88a1b8	-0.016678676
42	0xbd0eb00e	-0.034835868
43	0x3e598639	0.21242608
44	0x3e44b92a	0.1921126
45	0xbe1f02d5	-0.15528424
46	0x3d15efee	0.036605768
47	0x3e247947	0.16061889
48	0x3e805196	0.25062245
49	0x3e7cc309	0.24683775
50	0x3e47a6fe	0.19497296
51	0x3e06a3dd	0.13148446
52	0x3e983bd2	0.2973314
53	0x3d970892	0.073746815
54	0xbe2dc4aa	-0.16969553
55	0xbdcab6f4	-0.09898177
56	0xbd5829cf	-0.052774247
57	0x3e6ef878	0.23336971
58	0x3de96044	0.11395314
59	0x3e86a8e2	0.26300722
60	0x3e29072b	0.1650664
61	0xbdf84793	-0.12123027
62	0xbd91cf37	-0.07119601
63	0xbdda8d58	-0.106714904
64	0xbe342cb8	-0.17595184
65	0x3d2f8b65	0.042857546
66	0x3e08f367	0.133741
67	0xbe89d4cf	-0.26920173
68	0x3e55597d	0.20834918
69	0x3e586936	0.21133885
70	0xbd19ec4c	-0.037578866
71	0xbe3a8922	-0.18216375
72	0x3db8103e	0.08987473
73	0x3e17d46a	0.14827123
74	0xbdb1f0bf	-0.08688497
75	0x3dd6ba95	0.104848064
76	0xbdc7c103	-0.09753611
77	0x3e39e835	0.18154986
78	0x3e18873c	0.14895338
79	0x3dfedfa4	0.12445
80	0x3e6417d5	0.22274716
81	0x3ded1495	0.11576191
82	0xbe16048a	-0.14650169
83	0xbe3ed68f	-0.18636535
84	0xbe443373	-0.19160251
85	0xbda6222b	-0.08111986
86	0x3e04b5b2	0.12959936
87	0x3d8cc5c7	0.068736605
88	0x3e61bae5	0.22043951
89	0x3e8001b0	0.25001287
90	0xbe2a0abe	-0.1660566
91	0xbe2568ea	-0.16153303
92	0x3d833b2d	0.06407771
93	0xbe43f6bf	-0.19137095
94	0x3d91e0a7	0.07122927
95	0xbea48978	-0.3213613
96	0x3e0e7ca9	0.13914742
97	0xbe96376a	-0.29339153
98	0x3dcfbd9c	0.10143587
99	0xbdc741d8	-0.097293556
100	0xbe7471cd	-0.23871537
101	0xbd34385a	-0.043999054
102	0x3e5690f9	0.2095374
103	0x3e01ce45	0.12676342
104	0x3de1c86b	0.11024555
105	0x3e669e61	0.22521354
106	0xbe06b68a	-0.1315557
107	0x3e65b69b	0.2243294
108	0xbe1495c0	-0.1451025
109	0xbde84e0c	-0.11343011
110	0xbd60ac5a	-0.054851867
111	0xbcb9a079	-0.022659527
112	0xbe33c09b	-0.17553942
113	0x3e45416c	0.19263238
114	0xbd7323d5	-0.059360344
115	0xbe82c4a3	-0.25540647
116	0xbdefd71e	-0.11710952
117	0x3d244fc8	0.040115148
118	0xbe6281a2	-0.22119763
119	0xbe34d811	-0.17660548
120	0x3e3644d3	0.17799692
121	0x3eeb8e48	0.4600699
122	0xbd86de91	-0.0658542
123	0x3e3dabf5	0.18522628
124	0xbd9e29f8	-0.07722849
125	0x3ecb8a46	0.39753932
126	0x3d55ba78	0.052179784
127	0x3e561bdb	0.20909064
128	0x3e743b9e	0.23850867
129	0xbe6f6164	-0.23376995
130	0xbe6067e4	-0.21914631
131	0xbde51c6b	-0.11187061
132	0x3cbe348a	0.023218412
133	0xbe0f28cc	-0.13980407
134	0x3ec7b539	0.3900545
135	0x3dc3dd0c	0.09563646
136	0xbeab1f14	-0.33422148
137	0xbe4c62b2	-0.19959524
138	0xbe59994e	-0.21249887
139	0xbd74c5fc	-0.059759125
140	0xbea339b5	-0.31879964
141	0x3e2d2717	0.16909443
142	0x3dcd8327	0.10034781
143	0xbe4341c9	-0.19068064
144	0x3e7f495f	0.24930333
145	0x3e25f270	0.16205764
146	0xbdbc3bab	-0.09191068
147	0xbdd2b907	-0.102891974
148	0xbda5704f	-0.08078062
149	0xbe85365d	-0.26018038
150	0x3dc2ae8c	0.095059484
151	0xbe99176e	-0.29900688
152	0x3e66026f	0.22461866
153	0xbe65b823	-0.22433524
154	0x3e1e0123	0.15430121
155	0xbe942c07	-0.2893984
156	0x3e850685	0.25981537
157	0xbc60d7dc	-0.01372334
158	0xbd26245c	-0.04056202
159	0xbd4c24c8	-0.049839765
160	0xbe360dcd	-0.17778702
161	0x3e2446f0	0.16042686
162	0xbdf1ac3e	-0.11800431
163	0x3c197fa1	0.009368808
164	0xbe2eff5f	-0.17089604
165	0xbd5ede46	-0.054411195
166	0x3e8a1c03	0.26974496
167	0x3e6acab2	0.22928885
168	0xbe5253de	-0.20539805
169	0x3997a888	0.0002892653
170	0x3e34e4c4	0.17665392
171	0xbb9e2124	-0.004825728
172	0x3d81318d	0.06308279
173	0xbd8b2118	-0.067934215
174	0xbd317d92	-0.043332644
175	0xbe2daf66	-0.1696144
176	0xbd68b772	-0.056815572
177	0x3e496a4a	0.19669452
178	0xbe0fd4fd	-0.14046092
179	0xbdf409b5	-0.11915914
180	0x3daf1834	0.08549538
181	0xbe7284f4	-0.2368353
182	0x3e7493c4	0.23884493
183	0x3e3f2002	0.18664554
184	0xbde0f465	-0.109841146
185	0xbead0562	-0.3379317
186	0x3e098f9c	0.13433689
187	0x3e117bc2	0.14207366
188	0x3be81818	0.0070829503
189	0xbd5be203	-0.05368234
190	0xbe066d6d	-0.1312768
191	0x3e0efdd9	0.13964023
192	0x3e475574	0.19466192
193	0xbc313708	-0.010816343
194	0x3dab1053	0.08352723
195	0x3d83c2ac	0.06433615
196	0x3e1f6e35	0.15569384
197	0xbe4e79d0	-0.20163655
198	0xbda356fb	-0.079755746
199	0xbc0b724c	-0.008511137
200	0xbe13e8c8	-0.14444268
201	0xbe47ef84	-0.19524962
202	0xbdac274a	-0.08405931
203	0xbc701076	-0.014652362
204	0x3e6146d2	0.21999672
205	0xbd76b0fd	-0.060227383
206	0x3d910cdd	0.070825316
207	0xbd646d13	-0.055768084
208	0xbcda726d	-0.02666589
209	0xbc64a9af	-0.013956471
210	0xbe5e71fb	-0.21723168
211	0x3e3ee24d	0.18641014
212	0xbe27b4b1	-0.16377522
213	0x3e203f99	0.1564926
214	0xbc2949f8	-0.010332577
215	0x3e48c972	0.19608095
216	0xbd2a6b44	-0.041606203
217	0x3e6a92be	0.2290754
218	0x3d83982b	0.06425508
219	0xbe176652	-0.14785126
220	0xbd18b604	-0.03728296
221	0xbe68dd08	-0.22740567
222	0x3e1f4868	0.15554965
223	0x3df0e71c	0.117628306
224	0xbda49183	-0.08035567

fc2.bias f4 [15]
0	0x3d32f3e3	0.04368962
1	0x3e2a2a08	0.16617596
2	0x3ddb2c1d	0.10701773
3	0xbe831b9b	-0.25607
4	0xbd8e442b	-0.06946596
5	0xbe03678c	-0.12832469
6	0x3d893f8b	0.06701573
7	0x3e5e1dc9	0.2169105
8	0xbe70319e	-0.23456427
9	0x3e4a9ff1	0.19787575
10	0xbca8813b	-0.020569434
11	0x3d889a45	0.066700496
12	0xbe462994	-0.19351798
13	0x3e829e2f	0.2551131
14	0xbc558cd4	-0.013034064

output.weight f4 [1, 15]
0	0xbed278ae	-0.41107696
1	0xbeb7a2cb	-0.3586639
2	0x3f0cdc3a	0.5502354
3	0x3ec9c5b1	0.3940864
4	0xbe5c9fb3	-0.21545295
5	0x3e40db1b	0.18833582
6	0xbe941775	-0.28924146
7	0xbe139495	-0.14412148
8	0x3f46dff5	0.7768548
9	0xbf016a8a	-0.5055319
10	0xbe9b0302	-0.30275732
11	0x3e46baa4	0.19407135
12	0xbe869f3c	-0.2629336
13	0x3d544576	0.051824056
14	0x3ec1c493	0.37845287
