Weights/NBA_net.pth (torch_old, 1994 bytes, 5 tensors)

fc1.weight f4 [10, 10]
-0.19224608 -0.1853933 -0.25725374 0.31347525 0.1835402 0.29159993 0.16780691 -0.26930612
0.25919205 -0.2432072 0.36154097 -0.06904245 0.23787741 -0.23425618 -0.016081093 -0.007269256
-0.14172539 -0.023892345 0.0070392652 -0.23681664 -0.055996627 -0.27897152 -0.28263623 -0.25265148
0.2273303 0.108822204 -0.030503454 -0.13881224 0.243256 0.21229103 -0.24646348 0.12833127
-0.21150836 -0.11886711 -0.29573014 0.18346629 0.23812242 -0.11334049 0.04989664 0.10368944
-0.2221035 -0.19371195 -0.079182684 0.21238779 0.252065 -0.19956698 0.13590923 -0.2831802
0.2825673 0.0050070924 0.040988058 0.15531711 0.039610256 -0.13297768 0.08145887 -0.022051368
0.2784011 -0.26970816 0.20012334 -0.17246452 0.17340113 0.14161268 0.25295576 -0.12530707
-0.25117433 -0.10178582 0.31460583 0.20908926 -0.2623042 -0.023983665 -0.35845268 0.21753077
-0.19499265 -0.1405911 0.24357119 -0.2585894 0.10757733 -0.042973597 0.10193713 0.08614543
0.23903021 -0.03188798 0.027707804 -0.0003961501 0.11638967 -0.2087982 0.24579217 -0.0996389
-0.30699214 0.12081657 0.362033 -0.12250683 -0.13774034 -0.26095212 0.21122497 -0.15000966
0.3586527 0.029816208 0.16875173 -0.5450444
00000000: 28dc 44be bed7 3dbe c3b6 83be d47f a03e
00000010: f6f1 3b3e 964c 953e 93d5 2b3e 7ee2 89be
00000020: d2b4 843e 4f0b 79be e61b b93e 2166 8dbd
00000030: 2396 733e dae0 6fbe 7fbc 83bc f032 eebb
00000040: 7620 11be e1b9 c3bc a3a9 e63b 1080 72be
00000050: b85c 65bd 5bd5 8ebe b2b5 90be 895b 81be
00000060: 46c9 683e 2dde de3d 61e2 f9bc cc24 0ebe
00000070: 1a18 793e d262 593e ec60 7cbe 4669 033e
00000080: a695 58be 9970 f3bd f169 97be 96de 3b3e
00000090: 5dd6 733e 0f1f e8bd 6b60 4c3d 215b d43d
000000a0: 1a6f 63be 6d5c 46be 882a a2bd 2f7c 593e
000000b0: aa0e 813e 495b 4cbe ca2b 0b3e fffc 90be
000000c0: a9ac 903e 8912 a43b 18e3 273d 730b 1f3e
000000d0: 5d3e 223d 4d2b 08be e8d3 a63d 12a5 b4bc
000000e0: 978a 8e3e 3017 8abe 22ed 4c3e 8a9a 30be
000000f0: 1190 313e ea02 113e 6b83 813e 7f50 00be
00000100: ec99 80be 1675 d0bd 0414 a13e 7f1b 563e
00000110: bc4c 86be 6479 c4bc 1c87 b7be 63c0 5e3e
00000120: 27ac 47be 1df7 0fbe ba6a 793e d465 84be
00000130: 8151 dc3d 1505 30bd 6ac4 d03d 046d b03d
00000140: 56c4 743e f89c 02bd 7afb e23c 5eb2 cfb9
00000150: b55d ee3d 32cf 55be f1b0 7b3e 7b0f ccbd
00000160: 132e 9dbe ae6e f73d 645c b93e dce4 fabd
00000170: ce0b 0dbe 849b 85be 5c4b 583e 229c 19be
00000180: 54a1 b73e 1f41 f43c 41cd 2c3e 0888 0bbf

fc1.bias f4 [10]
0.098754935 0.2993562 -0.31026164 0.061536346 -0.31578147 0.16201995 -0.30129203 -0.24690461
0.26882702 0.15796998
00000000: 0740 ca3d 3745 993e 9dda 9ebe 890d 7c3d
00000010: 1cae a1be 8fe8 253e f342 9abe 90d4 7cbe
00000020: b2a3 893e e2c2 213e

fc2.weight f4 [10, 10]
-0.15471743 0.27681157 0.035909772 -0.19237167 0.096652836 0.03977573 0.13911891 -0.2079411
-0.08293483 -0.31571832 0.22846249 0.26432958 0.082811266 -0.26485828 -0.15509945 0.09277558
-0.12911785 0.10321367 0.20292637 0.25288525 -0.08138724 0.13102373 0.062952995 0.06263891
-0.0071825385 -0.04076767 -0.2809814 -0.21683921 0.22804597 0.23575935 0.022329211 -0.0072072446
0.20016727 0.27591673 0.27624163 -0.30164307 -0.06630854 0.15942502 0.11165586 -0.22595897
-0.0017965734 0.121968 0.21515384 0.038340807 -0.18331543 -0.3153221 -0.13079707 -0.29143566
0.15865597 -0.070188954 -0.17077494 -0.021516263 -0.13468494 -0.21515003 0.119689405 0.18043742
0.028326094 0.25037906 0.25389877 -0.033630013 0.1922448 0.21470115 -0.057909846 0.2655845
-0.31347823 0.2749221 0.25407097 0.06805658 0.1036551 0.29753563 0.31202295 -0.27028212
-0.05491066 0.043717206 -0.059066623 -0.14228988 0.10795939 0.25798246 0.1383917 0.046462476
0.028658837 -0.06691672 -0.27030304 0.11116567 -0.30790892 0.08443159 0.04740271 0.2730243
-0.07294305 -0.010838985 0.16904995 -0.25185812 0.19783756 0.26643416 -0.2491197 -0.1241349
0.21434972 -0.09380755 0.3151841 0.21811143
00000000: 3f6e 1ebe 3fba 8d3e 2016 133d 14fd 44be
00000010: ecf1 c53d e0eb 223d 3075 0e3e 83ee 54be
00000020: bcd9 a9bd d5a5 a1be 12f2 693e 3556 873e
00000030: f498 a93d 819b 87be 64d2 1ebe 2001 be3d
00000040: 7837 04be b061 d33d eecb 4f3e 2d7a 813e
00000050: 5aae a6bd 162b 063e 80ed 803d d448 803d
00000060: 805b ebbb 00fc 26bd cbdc 8fbe 190b 5ebe
00000070: e284 693e e66a 713e c0eb b63c c02a ecbb
00000080: a6f8 4c3e f544 8d3e 8b6f 8d3e f670 9abe
00000090: c6cc 87bd 5040 233e d4ab e43d ca61 67be
000000a0: 007b ebba 5cca f93d 4a51 5c3e 400b 1d3d
000000b0: 0ab7 3bbe e671 a1be abef 05be 0e37 95be
000000c0: b676 223e 3abf 8fbd a0df 2ebe e042 b0bc
000000d0: d9ea 09be 4a50 5cbe b81f f53d 96c4 383e
000000e0: 200c e83c af31 803e 05ff 813e a0bf 09bd
000000f0: d2db 443e 9eda 5b3e e032 6dbd b1fa 873e
00000100: 3880 a0be 97c2 8c3e 9715 823e 4061 8b3d
00000110: 2049 d43d 9756 983e 79c1 9f3e 6b62 8abe
00000120: 00ea 60bd d010 333d d8ef 71bd 70b4 11be
00000130: d019 dd3d 4716 843e 8eb6 0d3e 704f 3e3d
00000140: f0c5 ea3c a20b 89bd 2965 8abe d4aa e33d
00000150: 3da6 9dbe 78ea ac3d 5829 423d d7c9 8b3e
00000160: 2a63 95bd 0096 31bc 6e1b 2d3e 8cf3 80be
00000170: ee95 4a3e 0f6a 883e 3c19 7fbe 703a febd
00000180: 7e7e 5b3e 2c1e c0bd cf5f a13e 9a58 5f3e

fc2.bias f4 [10]
0.12298307 -0.20223275 -0.2948354 0.06918284 0.029348284 -0.29873252 -0.20960268 -0.1640947
-0.014152199 0.1656928
00000000: 8cde fb3d 1a16 4fbe aaf4 96be bcaf 8d3d
00000010: d06b f03c 78f3 98be 16a2 56be 7108 28be
00000020: a0de 67bc 60ab 293e

output.weight f4 [1, 10]
-0.24297647 0.24458387 0.11191574 -0.07426652 0.07723344 0.41162622 -0.13111256 -0.12873119
0.27076617 -0.8273812
00000000: d3ce 78be 3274 7a3e 1434 e53d 0c19 98bd
00000010: 912c 9e3d acc0 d23e 5f42 06be 1cd2 03be
00000020: dda1 8a3e 41cf 53bf
